…
      await navigator.clipboard.writeText(sampleImplementation.content)
      setCopiedCode(true)
      setTimeout(() => setCopiedCode(false), 2000)
    } catch (err) {
      console.error('복사 실패:', err)
    }
  }

  const runCode = async () => {
    setIsRunning(true)
    setOutput('코드 실행 중...')
    
    // 시뮬레이션된 코드 실행
    setTimeout(() => {
      setOutput(`실행 결과:
모델 구조:
Model: "sequential"
_________________________________________________________________
Layer (type)                 Output Shape              Param #   
=================================================================
conv2d (Conv2D)              (None, 222, 222, 32)     896       
max_pooling2d (MaxPooling2D) (None, 111, 111, 32)     0         
conv2d_1 (Conv2D)            (None, 109, 109, 64)     18496     
max_pooling2d_1 (MaxPooling2 (None, 54, 54, 64)       0         
conv2d_2 (Conv2D)            (None, 52, 52, 64)       36928     
flatten (Flatten)            (None, 173056)            0         
dense (Dense)                (None, 64)                11075648  
dense_1 (Dense)              (None, 10)                650       
=================================================================
Total params: 11,132,618
Trainable params: 11,132,618
Non-trainable params: 0

특허 기반 이미지 분류 시스템이 준비되었습니다.`)
      setIsRunning(false)
    }, 2000)
  }

  const downloadCode = () => {
    const element = document.createElement('a')
    const file = new Blob([sampleImplementation.content], { type: 'text/plain' })
    element.href = URL.createObjectURL(file)
…
